…
tadata":{"colab":{"base_uri":"https://localhost:8080/"},"id":"Z0rvGvVESWh7","executionInfo":{"status":"ok","timestamp":1663672199959,"user_tz":-300,"elapsed":651,"user":{"displayName":"Ahtsham Zafar","userId":"07516761739890635166"}},"outputId":"d2b56175-d4fa-47f8-a681-2cba5621682f"},"execution_count":6,"outputs":[{"output_type":"stream","name":"stdout","text":["----------------------------------------------------------------\n","        Layer (type)               Output Shape         Param #\n","================================================================\n","            Conv2d-1         [-1, 32, 238, 424]           2,336\n","            Conv2d-2         [-1, 32, 236, 422]           9,248\n","         MaxPool2d-3         [-1, 32, 118, 211]               0\n","            Conv2d-4         [-1, 64, 116, 209]          18,496\n","            Conv2d-5         [-1, 64, 114, 207]          36,928\n","         MaxPool2d-6          [-1, 64, 57, 103]               0\n","            Conv2d-7         [-1, 128, 55, 101]          73,856\n","            Conv2d-8          [-1, 128, 53, 99]         147,584\n","            Linear-9                   [-1, 10]       6,716,170\n","             ReLU-10                   [-1, 10]               0\n","           Linear-11                    [-1, 3]              33\n","================================================================\n","Total params: 7,004,651\n","Trainable params: 7,004,651\n","Non-trainable params: 0\n","----------------------------------------------------------------\n","Input size (MB): 3.12\n","Forward/backward pass size (MB): 91.81\n","Params size (MB): 26.72\n","Estimated Total Size (MB): 121.65\n","----------------------------------
…
